app/src/main/assets/models/classifier.onnx (onnx, 79962 bytes, 6 tensors)

conv1.weight f4 [32, 3, 3, 3]
00000000: 0475 16be 7307 333e 79e5 bfbd e372 403e
00000010: e097 81bb aa90 c53d 87a2 b5bd 806b e7bb
00000020: f984 0abe 2c7f 26bd 2339 383e 27c5 223e
00000030: ea15 9fbd d8da 87bc db50 273e 7f20 3f3e
00000040: 8409 20be 7ad6 d83d 9d2f 033e ea55 d43d
00000050: d3a2 9fbd c667 41be be98 3ebe 3013 60bd
00000060: 153c 08be abe8 0abe 1c46 2bbe 9b07 063e
00000070: 68f8 06be e02f 2abe 2c85 283d f64f 15be
00000080: ea7e b63d 294e 28be d84f bf3c 87c1 0b3e
00000090: 5c06 653d f523 113e 488e 8fbd e457 c1bd
000000a0: 183e 9cbd 42a1 c4bd e41c 48bd 93a1 dabd
000000b0: 9fa8 443e dcdb 55bd df3b 28be 173d 373e
000000c0: 9b68 0a3e c065 02be d082 0bbd 60b7 61bd
000000d0: bc93 85bd 10db 2dbc 74f8 44bd 1b71 173e
000000e0: cee7 d63d 8888 be3c 9d2d 233e 7cc9 093d
000000f0: 6f28 103e 740e 4cbd 1622 82bd 18f5 093d
00000100: 6bdd 2ebe 1820 dcbd a762 37be 607b e5bd
00000110: a2a4 00be 0124 d5bd f735 023e a3dc bebd
00000120: f15b 413e e0bb d0bb d47a 2cbd 0037 e4bb
00000130: 3c7c 63bd b901 9cbd df85 293e c217 f7bd
00000140: cd0a 323e 9d46 0e3e 83c7 0ebe 4e6b d43d
00000150: 4eb2 c43d 50c1 36bd 3d23 103e 66b1 d33d
00000160: 0061 c1ba f329 c0bd 20e8 573c 1c10 0ebe
00000170: d0e7 343d 1ebe f43d eaaa 983d 8dfb 143e
00000180: c89c 90bd d1c5 d1bd 2836 f2bd f6b4 36be
00000190: c08e d73c ee5e 44be a821 24be c044 90bd
000001a0: aec3 b33d f6ea 0abe 9c0e 3ebd e866 b13c
000001b0: 57df 19be dc25 3d3d befa e93d 2c56 18be
000001c0: ddb1 2ebe 2e32 82bd d48b 3bbd 9dd8 3a3e
000001d0: f7e9 36be c2ae be3d c85a ecbc 41dc 0b3e
000001e0: c0bc 9c3c 30b8 91bd 102c 37be 5628 1cbe
000001f0: e0d0 38be fc40 51bd 872a c2bd 9d7a 3e3e
00000200: 46af bfbd 2d32 0fbe 88ab b5bc 34bd 09be
00000210: 065b d43d d804 0cbd 1732 0ebe 6786 043e
00000220: 5f37 183e 4777 043e e380 e9bd 7ed5 e2bd
00000230: d828 eabc 203f aabc 7b2f 013e 764b ca3d
00000240: e249 b23d e268 f1bd 75de 8bbd 759c 233e
00000250: c2a2 0ebe e805 25be 2820 e9bd 8540 40be
00000260: a6b6 b8bd 105b 5cbc 7c0f 313d 8044 093b
00000270: 056c 28be dba4 15be 6cfc 5ebd dd8f 393e
00000280: 8514 8fbd 20e3 d8bd 9332 223e 8756 0f3e
00000290: dd1e 2dbe e8c1 0dbe 986b 233d e87b 0d3d
000002a0: 90e8 5b3c dafb d4bd 1c2c f7bd 63a2 0d3e
000002b0: 20a4 6dbd bc3b 423d e67f fe3d 6d69 1e3e
000002c0: b0e1 523c 2a65 e73d e0c7 20bc 5050 e83c
000002d0: 5bab 163e d4db 693d 2a70 f23d 5e26 da3d
000002e0: bc4f 6c3d b3e3 143e 8308 403e 3220 fb3d
000002f0: f0fb 063c 25e4 b2bd 7e0b 45be 8e47 0fbe
00000300: 7a09 ad3d 0d20 f6bd 8007 353b 2003 9b3c
00000310: c8d9 413d e873 423d d0de 693d c101 f8bd
00000320: ccb1 2cbd 21fe 213e c989 debd b6b5 b03d
00000330: 30f6 8fbc d805 8b3c c067 79bd 8877 163d
00000340: 1823 1cbe 802d c23b 1ac1 893d d648 ba3d
00000350: 967d 32be 5035 36bc 1c22 d8bd 00b0 07bb
00000360: ad34 2c3e e46d 6e3d 9cdd 683d 39e7 213e
00000370: 6b8b 133e eea2 bd3d 701d 1a3c 8575 043e
00000380: 8664 c43d 564a 42be 13e0 143e 48ff 213d
00000390: a7dc 143e fee5 eebd 5e50 ce3d dae2 943d
000003a0: b6ff 8d3d 5354 313e ff68 f0bd 9091 edbc
000003b0: 6db5 d0bd 5ea2 f63d f2cc ce3d f6e6 29be
000003c0: b8de d03c da05 fa3d 6f7f 42be 35b9 f6bd
000003d0: 18ec 42be b506 17be 80a6 aebd f0da 093c
000003e0: 90d2 99bc 90ed 343d 70f5 ad3c 0cf8 03be
000003f0: c0ec 4c3b 54ce 693d e8cb e7bd c052 5fbb
-0.14693075 0.1748331 -0.0936994 0.18793826 -0.0039548725 0.09646733 -0.0886889 -0.0070623755
-0.13527288 -0.040648624 0.17990546 0.1589552 -0.07767852 -0.016583845 0.16339438 0.1866474
-0.1562863 0.10587783 0.12811132 0.10367949 -0.07794728 -0.18887243 -0.18612954 -0.0547058
-0.1330417 -0.13565318 -0.16725963 0.13088839 -0.13180697 -0.16619825 0.041142628 -0.14581284
0.08910926 -0.16436066 0.023353502 0.13648044 0.055914268 0.14173873 -0.0700956 -0.09440592
-0.07629031 -0.0960107 -0.048855677 -0.10675349 0.19204949 -0.052211627 -0.16429089 0.17894398
0.13516466 -0.12734127 -0.0340603 -0.05510652 -0.06522319 -0.010611311 -0.048088506 0.1478924
0.10493432 0.023258463 0.15935369 0.033639416 0.14077924 -0.04981847 -0.063541576 0.033681005
-0.17076652 -0.10748309 -0.17908727 -0.112051725 -0.12562802 -0.10407258 0.12715898 -0.09319427
0.18882729 -0.0063700527 -0.042109326 -0.0069645643 -0.0555384 -0.07617516 0.16554974 -0.12065078
0.17386933 0.13894124 -0.13943295 0.10372029 0.096043214 -0.04461795 0.14075942 0.103365704
-0.001475364 -0.09383001 0.0131779015 -0.13873333 0.044166386 0.119503245 0.07454474 0.14549084
-0.07061154 -0.102428086 -0.11826736 -0.17842469 0.026313186 -0.19176838 -0.16028464 -0.07044363
0.08777557 -0.13566193 -0.04640065 0.021655515 -0.15026604 0.046178684 0.114247784 -0.14876622
-0.17060037 -0.06357227 -0.045787647 0.18246694 -0.17862688 0.09310676 -0.028851882 0.13658239
0.019132972 -0.07115209 -0.17887902 -0.15249762 -0.1804843 -0.051087365 -0.09480768 0.18601461
-0.09359603 -0.13983984 -0.022176519 -0.13451082 0.10368924 -0.034184307 -0.13886295 0.12941895
0.14864872 0.12936126 -0.11401536 -0.11075877 -0.028583929 -0.020782053 0.12615769 0.09877674
0.08705498 -0.11787583 -0.0682954 0.15977652 -0.13929275 -0.16115534 -0.113830864 -0.18774612
-0.090192124 -0.013449445 0.043227658 0.002094537 -0.16447456 -0.14613669 -0.054439947 0.18121286
-0.06986336 -0.10590196 0.15839605 0.13997851 -0.16906305 -0.138435 0.03989753 0.034541994
0.013422146 -0.103995994 -0.1206896 0.13831477 -0.05801785 0.04742025 0.124267384 0.15469904
0.012871191 0.112985924 -0.009813279 0.028358608 0.14713804 0.05709441 0.118378 0.10651849
0.057693228 0.14539985 0.18753247 0.12262 0.0082387775 -0.08734921 -0.19242665 -0.1399214
0.08449073 -0.12017832 0.0027622879 0.018922389 0.047326833 0.047473818 0.057097256 -0.121097095
-0.042161748 0.15819599 -0.10866124 0.086284086 -0.017573446 0.01697056 -0.06088996 0.036735088
-0.15247762 0.005925834 0.06726284 0.090959236 -0.1743072 -0.011121109 -0.10553381 -0.002070427
0.16816969 0.05821027 0.05685197 0.1581086 0.14408652 0.09259592 0.0094064325 0.12935455
0.09589486 -0.1897367 0.14538603 0.039550096 0.14537297 -0.11664961 0.100739226 0.07269831
0.069335386 0.17317323 -0.117387764 -0.029000074 -0.10190854 0.12042688 0.10097684 -0.16592011
0.025496826 0.12208147 -0.18993925 -0.12047044 -0.19035375 -0.14748652 -0.08527851 0.008414015
-0.018777162 0.04417187 0.021235198 -0.12887591 0.0031269044 0.057081535 -0.11318189 -0.0034076422

conv1.bias f4 [32]
00000000: 03d4 3d3e 2066 873b 97ca 28be a58d 2abe
00000010: 49c2 2d3e adcc 443e 82e7 a73d e0c1 943b
00000020: 527f 933d 1f5f 003e d441 143d bb2a f2bd
00000030: a0d5 1a3c 6e65 bb3d 7401 c4bd 884a 9f3c
00000040: a200 8b3d ec93 41bd 65e9 bfbd 77b9 dcbd
00000050: 11b1 013e 337d c6bd 409a adbb 98ea 123d
00000060: bd94 92bd 8429 4abd ab9a d1bd 40b4 923b
00000070: 97d6 243e d006 9b3c d0af 09bd aaab 8e3d
0.18537907 0.0041320473 -0.16483532 -0.16655596 0.16968645 0.19218703 0.081984535 0.0045397133
0.07202019 0.12536286 0.03619559 -0.118245564 0.009450346 0.091502056 -0.0957059 0.019444719
0.0678723 -0.04726021 -0.09370688 -0.10777562 0.12665202 -0.096918486 -0.005297929 0.035868257
-0.07157276 -0.049356 -0.10234579 0.004477054 0.16097485 0.018924147 -0.033614933 0.06966336

conv2.weight f4 [64, 32, 3, 3]
00000000: 754e 6c3d a026 953a 80c5 3a3b d687 f63c
00000010: e81f 83bc 844d 31bd b53f 08bd 50d6 443b
00000020: 1239 ae3c 82c2 d53c 9982 173d 7e57 813c
00000030: a38a 673d f350 473d 7451 9bbc 56a1 eb3c
00000040: f667 e63c 29ea 163d c0ff 9bbb aebc b33c
00000050: 6749 2d3d 793a 52bd 107c 193b fead e93c
00000060: 5799 083d d9de 293d 5833 5bbc ce88 a23c
00000070: b528 0f3d 88ec 48bc 44cc 36bc a0fe 813a
00000080: 0cbd 30bd f8e6 72bc f0cd 9cbc b8ef 6dbd
00000090: f93a 463d 6275 11bd f48a aabc 54d6 243c
000000a0: 9cb1 1abc 14e7 42bc cf24 3e3d 0624 af3c
000000b0: 2c09 313c 0aa3 ab3c 00f1 35b9 64ee 713c
000000c0: c6cb cb3c 8f15 50bd 304c 28bd 7a4c 9cbc
000000d0: 2b87 6c3d 18af 803b eb90 4d3d edd1 413d
000000e0: 402c 28bd 4675 c9bc 35f3 0f3d a963 6f3d
000000f0: c0f9 4cbc 8d7c f1bc 7fb8 3e3d 625a b83c
00000100: 202d 473b be8f 943c 3955 333d 88ac 83bc
00000110: e169 56bd 049f 35bc 0f85 663d 992d 703d
00000120: fa3f cb3c e73b 343d ca46 bebc d0df 2bbc
00000130: a0b8 32bb 03f8 4a3d 1999 363d dcae aebc
00000140: 510c 633d 721c 5abd 3f33 533d 4c0f 483c
00000150: 1381 293d 9c4e 3b3c a68b a53c 0659 e0bc
00000160: 9fb9 393d 9d3d 23bd 5fff 563d 9807 1dbd
00000170: 83f3 333d 4328 013d 5b66 263d a0a9 9bbc
00000180: e0e4 f1bb 9908 3c3d 4b59 efbc 62ed 91bc
00000190: 065f 4dbd e699 debc 12b2 dd3c 34b7 95bc
000001a0: ff72 5a3d 7c4d 4fbc 6d97 653d 7eab dbbc
000001b0: 6a01 00bd e13b e4bc 9e27 9cbc 828f 973c
000001c0: 692b 423d be20 f83c e0be 15bb 2c9c 123c
000001d0: 7520 213d 81c2 1c3d 2040 d1bb 7136 563d
000001e0: a005 fd3a 80a2 8bbc 662f 913c 9596 2e3d
000001f0: 9ab2 d7bc f2d8 f23c 6071 06bb d0eb 393b
00000200: 2ad4 b13c d2f4 0ebd acda 0fbd d1c9 553d
00000210: a02b 17bd 8000 0cbd 3814 57bd 7488 88bc
00000220: 8202 d43c 60a6 adbc 69a6 0f3d 7281 1fbd
00000230: 69b7 0dbd 902a 00bd 1668 a23c 6192 2c3d
00000240: 3814 e9bb 00e0 c336 d803 ef3b 15b3 3e3d
00000250: a69a babc 204b 073b b021 98bb 3d1c 303d
00000260: 183c adbb 002c 69b8 7c8b 503c 715e 0f3d
00000270: 4be3 003d aeac 37bd cec0 f53c bdb7 083d
00000280: d892 ae3b 443f 29bd d899 abbb 7a97 c43c
00000290: 7666 26bd 37bf 333d 5238 fd3c f4d9 1c3c
000002a0: 0bef 183d 5b5d 64bd 806d 91b9 1b5e 533d
000002b0: 5146 463d cc6b 513c 59cd 1f3d dbd9 273d
000002c0: 946f 6f3c 7477 6a3c cadb c03c 8301 223d
000002d0: c450 66bc 9069 22bd 95c4 57bd 92b4 a73c
000002e0: a245 ae3c be6f d8bc 304f c0bc 4ea2 b23c
000002f0: b017 0a3b 40c7 a2ba bcc3 04bc beea f33c
00000300: 76d9 98bc 2ae8 36bd c744 013d a2ae f93c
00000310: fa0a 19bd e23b f33c 1a90 983c 47b6 043d
00000320: 1c4e 063c d088 93bc c6d4 8f3c f0a5 70bc
00000330: a80f a0bb a731 19bd 9811 a8bc 119d 643d
00000340: e1c6 42bd b896 86bc d8df f93b 9395 0e3d
00000350: d599 573d bc9e 0cbd da87 45bd f072 53bd
00000360: 50c7 01bb 450a 5c3d 7aa1 c03c 1e05 8a3c
00000370: 11c8 623d 2c77 403c 9e54 8bbc d891 17bc
00000380: 4b9f 5cbd 242f 323c e100 17bd d06a 63bc
00000390: 6e8b c2bc 61c8 103d 3c1a 2a3c 4145 01bd
000003a0: 6c39 0bbc bac6 42bd 54d4 20bc 245e 43bd
000003b0: b204 883c 1e59 963c 6d56 0d3d 70ee 46bb
000003c0: 744e 17bd f683 6bbd c87f c83b 9786 2e3d
000003d0: b88b d9bc 0842 9e3b f3ac 523d c8f1 833b
000003e0: 4c72 01bc 6578 59bd 03bf 45bd d451 423c
000003f0: a223 8abc f562 6a3d 2a97 fa3c b774 00bd
0.05769201 0.0011379309 0.0028499067 0.030094068 -0.016006425 -0.043286815 -0.03326388 0.0030034967
0.021267448 0.026093725 0.036989782 0.01578879 0.0565287 0.048661184 -0.018959738 0.028763454
0.028125744 0.036844406 -0.0047607124 0.021940555 0.04230633 -0.051325295 0.0023419894 0.028525349
0.03334936 0.04147229 -0.0133789405 0.019840624 0.03495093 -0.012263425 -0.011157099 0.0009917803
-0.04314904 -0.014825575 -0.019141167 -0.05808994 0.048396084 -0.035512336 -0.020818211 0.010060865
-0.009441759 -0.011895914 0.046421822 0.021379482 0.010805409 0.020951767 -0.00017351285 0.014766309
0.02487744 -0.05080181 -0.041088283 -0.019079436 0.057746094 0.003927123 0.050187033 0.04731934
-0.041057825 -0.024592053 0.03514405 0.058444653 -0.012510717 -0.029478336 0.046562668 0.022504035
0.0030391887 0.018134948 0.043782447 -0.01607348 -0.052347068 -0.011085276 0.05627924 0.058637235
0.02481078 0.04400244 -0.023227114 -0.010490373 -0.002727069 0.04955293 0.0445796 -0.021323614
0.055431668 -0.053249784 0.051562544 0.012210678 0.04138286 0.011432316 0.020208191 -0.0273862
0.045343038 -0.03985368 0.052489635 -0.03833732 0.043933403 0.031532537 0.040624958 -0.019001782
-0.0073820204 0.045906637 -0.029217383 -0.017813388 -0.05013945 -0.027172994 0.02706245 -0.018275835
0.053332325 -0.012652751 0.056052614 -0.026815172 -0.03125135 -0.027860584 -0.01906186 0.018501047
0.04740468 0.03028905 -0.0022849366 0.008948367 0.039337594 0.03827143 -0.006385818 0.052298013
0.0019304045 -0.01704526 0.017722797 0.042624075 -0.026330281 0.029644463 -0.0020514354 0.0028369315
0.021707613 -0.034901448 -0.03512065 0.05219442 -0.03690684 -0.034180164 -0.052509516 -0.016666628
0.025880102 -0.021197498 0.03507081 -0.038941808 -0.03459874 -0.03129059 0.019825023 0.042131785
-0.007113006 5.83753e-06 0.0072941594 0.046557505 -0.02277882 0.0020644143 -0.0046426877 0.04299568
-0.0052867047 -5.5592507e-05 0.012728568 0.035002176 0.031466763 -0.044842415 0.029999163 0.03337835
0.0053275637 -0.0413201 -0.0052368455 0.02399801 -0.040625058 0.04388353 0.030910645 0.009573448
0.037337344 -0.055753093 -0.0002773814 0.051603418 0.048406903 0.012782048 0.039014194 0.040979248
0.014614005 0.014310706 0.023542304 0.039552223 -0.014057342 -0.039651453 -0.05267771 0.020471845
0.021273438 -0.02642047 -0.02347526 0.021805909 0.0021071248 -0.0012419 -0.008103307 0.02977502
-0.018658381 -0.044655003 0.03155973 0.03047878 -0.037363984 0.02969164 0.0186234 0.032400396
0.008197334 -0.018009573 0.017557513 -0.014688 -0.004884679 -0.037400868 -0.020516202 0.055813853
-0.047552947 -0.01642929 0.007625561 0.034810614 0.05263694 -0.03433107 -0.04822526 -0.051623285
-0.0019802637 0.05372073 0.023514498 0.016848143 0.05536658 0.011747163 -0.017008122 -0.00925108
-0.05386285 0.010875497 -0.036866073 -0.013880447 -0.023748126 0.035347346 0.010382231 -0.031560186
-0.008497577 -0.0475528 -0.009816248 -0.0476972 0.016603801 0.018353041 0.03450625 -0.0030354522
-0.036940053 -0.057498895 0.0061187483 0.042608824 -0.02655588 0.004829649 0.05143447 0.0040266253
-0.007900786 -0.053093333 -0.048277866 0.01186033 -0.016862694 0.05722328 0.030589659 -0.031361308

conv2.bias f4 [64]
00000000: 933d 563d 6671 d03c bcd6 443c 161f e13c
00000010: 82cc ea3c a784 003d d74b 013d 08e8 c3bb
00000020: 4db8 4a3d 1481 1c3c 3562 19bd dcd9 6ebd
00000030: 7044 a7bb a612 913c be0c 8f3c 3f0e 4b3d
00000040: 6f92 61bd ffe3 6b3d a8d0 c8bb 42ce 80bc
00000050: 91a9 123d 88af 81bc 9c09 48bc 9c8b 053c
00000060: 082c 8ebb 05c1 303d 8c90 4b3c d6e5 b2bc
00000070: fcf7 cdbc 3982 373d be77 46bd 16cd db3c
00000080: cc4e d0bc 62a3 b83c 7a5c b1bc 17aa 453d
00000090: c0c7 e5ba 2926 1e3d 0021 de3a 9411 3b3c
000000a0: e16e 67bd 79ee 1f3d 7675 f0bc a5bf 0dbd
000000b0: d4bc 103c cf32 463d d4ef 61bc 708b eebc
000000c0: 96a3 b93c a362 0f3d a8b0 43bc 26ff 70bd
000000d0: 8274 9b3c ea81 c2bc 00be 6cb9 48e3 833b
000000e0: 71b4 2e3d 1c8a 643c 6176 42bd 3510 64bd
000000f0: 3417 3ebc 4d80 423d d453 32bd 80e0 ea39
0.052304816 0.025444698 0.012014087 0.027480643 0.02866197 0.031376507 0.031566467 -0.005978588
0.04949217 0.009552259 -0.037447173 -0.058313236 -0.005104594 0.017709088 0.01746213 0.049574133
-0.05507129 0.05759048 -0.0061283894 -0.015723351 0.035806242 -0.01583077 -0.012209322 0.008150961
-0.004338745 0.043152828 0.012424599 -0.02183811 -0.025142662 0.044801924 -0.04845404 0.026831191
-0.025428198 0.022538844 -0.021650542 0.048257913 -0.0017530844 0.03861061 0.0016947091 0.011417765
-0.056502227 0.039045785 -0.029352885 -0.034606595 0.008834083 0.0483883 -0.01379009 -0.029119223
0.022661012 0.035006177 -0.011943974 -0.05883708 0.018976454 -0.023743588 -0.00022577494 0.004024897
0.04265255 0.0139489435 -0.047476176 -0.05567952 -0.011602212 0.04748564 -0.043536976 0.00044799224

fc.weight f4 [5, 64]
00000000: 969f 823d 70d8 1b3d e0a8 bf3c 989f 393d
00000010: 006b 44bc 82ba a13d 7c43 7ebd b8f5 263d
00000020: fc24 d7bd 2a58 ea3d 4a34 813d 5860 833d
00000030: bec6 89bd a468 22bd c685 e0bd 3829 7c3d
00000040: e09c 30bc 84ae 89bd 7469 f73d a6be aabd
00000050: 906e 963c 84ca 233d 74e8 21bd 103d 283d
00000060: 6c78 4dbd 58de 5bbd 609d 92bb c0bc c13c
00000070: 2064 463d 62c0 a6bd 8ec2 d4bd 10b0 eebd
00000080: 5898 a73c 82a9 cc3d 1892 963c d203 ee3d
00000090: 34f9 7dbd 6004 bbbc 4824 e2bd d0fd 973d
000000a0: 0058 e839 58eb d63d 7a30 ac3d 8a39 a7bd
000000b0: 4892 a33c cee6 983d 88da b3bd 903f c03c
000000c0: 7867 8e3c d444 363d 4c5a 3c3d 305a d3bc
000000d0: 6c2c 42bd 5888 ae3d a064 eabc 4a3f 993d
000000e0: 3ef6 bb3d b6f7 bbbd ec93 303d e27a a73d
000000f0: 5cfe 9abd 445c 963d ec40 afbd cc03 83bd
00000100: a469 02bd a849 febd 7e96 fb3d 40d6 d93d
00000110: 7418 ab3d 68e6 443d 38e0 c03c d4a5 d83d
00000120: 98fb 803c 7c32 6a3d 1019 d0bd a4ae ddbd
00000130: 6824 803d b8f3 5d3d 40a5 53bc 6630 b5bd
00000140: d075 dd3c c063 003d 8429 6c3d 3c44 07bd
00000150: 4ec2 8bbd c072 883d a09c f23b 7063 183d
00000160: a818 f73d d2a6 a13d 006d 79bb 406a 803b
00000170: 7c00 b73d 4287 953d 5cec c33d 2498 7a3d
00000180: be0e 883d 34b9 24bd d4ee a23d 28f0 83bc
00000190: a073 b2bc 084d 563d d0eb f23d c406 cc3d
000001a0: a29c dd3d 8c45 383d b289 f5bd e630 a9bd
000001b0: 300b a3bc d0af 1a3d 7090 533d 42cf cbbd
000001c0: a0c3 aebc 4eaa a33d 9090 6fbd 0c9b 98bd
000001d0: 94a8 a8bd c07d a4bd f0bf 8d3c 5835 4abd
000001e0: d0a3 a83c 3c41 003d 586e b2bc e8ae 05bd
000001f0: e063 d2bb 00c7 9c3d c024 123d 0e62 acbd
00000200: dca9 883d 60bd 903d 0ca5 10bd b0d4 123c
00000210: 3ee4 9cbd 30c9 77bd d60d 853d 5ca2 c4bd
00000220: eef2 85bd 2c39 a4bd f2c9 e33d 9279 80bd
00000230: 20ab 81bb c01f ebbb 8a6a b03d a2c6 d23d
00000240: 7491 14bd a009 5a3d 8881 2cbd e2c1 d1bd
00000250: b2c2 933d a498 73bd 18dd 56bd b6b0 a2bd
00000260: 5809 453d b617 a4bd c8cd a83d f05a b53c
00000270: 10e8 1c3c 0207 f83d acda 0d3d c020 efbc
00000280: e090 91bd deed a53d b84e b03c 60b8 ca3b
00000290: 0074 e53d 98d4 b73d 5064 1abc 4871 d4bc
000002a0: c0c5 32bd 400a f93d 3442 d03d f267 b73d
000002b0: e881 fe3c 00fa a7bd c663 8fbd f0fe 993c
000002c0: 3aa2 863d 7ca2 e73d 4014 fb3d d026 9a3c
000002d0: e04a fb3c 10dd 77bc 1ecf f2bd 80b8 be3d
000002e0: 0e75 90bd ee0c cebd 50a9 ec3d 0a8e febd
000002f0: dc2a 333d 2a6b ab3d b2f9 983d 90ef a83c
00000300: a87c d9bd 30c8 adbc 284d 89bd 26e4 863d
00000310: 9c69 663d fc53 6bbd 20b6 273d 5c94 88bd
00000320: 38bd 693d 880a 91bd c035 7abc d8dc ffbd
00000330: b88e a4bd 64e5 6b3d a4ce 243d 6e24 d9bd
00000340: 2027 86bb 94c4 e5bd 067e c43d 1c27 36bd
00000350: e046 ebbd da59 dd3d 006c 6fbb 7875 18bd
00000360: 00d5 5dbb f01b 3e3c f44b c7bd 8c87 093d
00000370: 4041 923d 80e7 70bc 76d0 973d 9063 ffbd
00000380: a4a2 5e3d d64b 8e3d 4463 9a3d 1696 99bd
00000390: 8a7d c93d 2018 ce3c aa2b 93bd a4d9 903d
000003a0: 78aa 5cbd e853 4d3d 80ce c6ba 98da 9dbd
000003b0: 3e2c 943d 084b f4bd 809f 9fbc c0cc cabb
000003c0: f0ff e03c fe27 9e3d f0c1 fa3c b005 10bd
000003d0: 7696 973d aa71 85bd fc2f a6bd b621 dabd
000003e0: 166b f6bd 20e3 5b3c 7870 0c3d bc51 323d
000003f0: d074 c73d bc37 2b3d c034 f2bd 80a9 c5ba
0.06378095 0.038048208 0.023395956 0.045318216 -0.011988401 0.07896902 -0.062076077 0.04076168
-0.10505101 0.11442597 0.063088015 0.064148605 -0.0672736 -0.039650574 -0.10963015 0.061562747
-0.010779589 -0.06722739 0.120806605 -0.083371446 0.018363267 0.039988056 -0.039528325 0.04107386
-0.05016367 -0.05367884 -0.004474327 0.023649573 0.04843533 -0.08142163 -0.10388671 -0.11654675
0.020458385 0.099932685 0.01838021 0.116218224 -0.062005237 -0.022829235 -0.11042076 0.07421458
0.00044316053 0.10494107 0.08407684 -0.081652716 0.019967213 0.074658975 -0.08781916 0.023467809
0.017383322 0.044499233 0.04598455 -0.02579984 -0.047405645 0.08522099 -0.028612435 0.074827746
0.09177826 -0.091781065 0.04310982 0.08177735 -0.075680465 0.07341817 -0.08557305 -0.063972086
-0.031839028 -0.124163926 0.122845635 0.10636568 0.083542734 0.048071295 0.023544416 0.10578504
0.01574497 0.057177052 -0.1016103 -0.10824326 0.06256944 0.054187506 -0.012917817 -0.08847122
0.027033716 0.03134513 0.05765678 -0.033024058 -0.0682417 0.06662512 0.007403925 0.037204206
0.1206525 0.078931466 -0.0038059354 0.003918916 0.08935639 0.07301189 0.09566566 0.06118025
0.06643437 -0.040215686 0.07955709 -0.016105726 -0.02178365 0.052319556 0.11861384 0.09962228
0.10820891 0.0449882 -0.11989154 -0.0826128 -0.019902796 0.037765324 0.05165142 -0.09951641
-0.021333516 0.079914674 -0.058487475 -0.07451448 -0.08235279 -0.080317974 0.017303437 -0.04936728
0.020585924 0.031312212 -0.021781132 -0.032637507 -0.0064205974 0.07655144 0.03567958 -0.0841714
0.06673023 0.070673704 -0.03531365 0.008961841 -0.07660721 -0.0604946 0.064967796 -0.0960128
-0.06540476 -0.08018717 0.111225024 -0.06273188 -0.0039571673 -0.0071754158 0.08614071 0.102917925
-0.036271527 0.053231835 -0.042115718 -0.10242058 0.072148696 -0.05947174 -0.052456945 -0.07943861
0.048104614 -0.08012335 0.08242375 0.022138089 0.009576812 0.12110712 0.03463237 -0.029190421
-0.07107711 0.0810201 0.021521911 0.00618653 0.11203766 0.08976096 -0.00942333 -0.025932923
-0.04364562 0.12160158 0.10168877 0.08955373 0.031067804 -0.082019806 -0.07001452 0.018798321
0.06573911 0.11310288 0.12259722 0.018817335 0.030675352 -0.015128389 -0.11855911 0.09312534
-0.070535764 -0.1006106 0.11555731 -0.124294356 0.043742046 0.08370049 0.074695006 0.020622045
-0.106194794 -0.02121362 -0.067041695 0.065864846 0.05625306 -0.05745314 0.040945172 -0.06668922
0.05706522 -0.07082087 -0.015271604 -0.124932945 -0.08035034 0.05759181 0.04023613 -0.106026515
-0.0040940195 -0.11219135 0.095943496 -0.04447089 -0.11488128 0.108081535 -0.003653288 -0.037221402
-0.0033848882 0.0116033405 -0.09731284 0.033576533 0.07141352 -0.014703631 0.07412808 -0.12470162
0.054354325 0.06948058 0.07538465 -0.0749933 0.09838398 0.025157988 -0.07186063 0.07072762
-0.05387351 0.050128847 -0.0015167743 -0.07707709 0.07235001 -0.119283736 -0.019485235 -0.006188959
0.02746579 0.07722472 0.030610055 -0.035161674 0.07401745 -0.0651582 -0.08114621 -0.10650961
-0.12032144 0.01342085 0.034286946 0.04353498 0.09739077 0.0418012 -0.118264675 -0.0015080422

fc.bias f4 [5]
00000000: d428 81bd 0a01 b23d 9c72 763d e884 1fbd
00000010: 2021 bfbd
-0.063066155 0.086916044 0.060167894 -0.03894511 -0.0933249
