app/src/main/assets/models/classifier.onnx (onnx, 79962 bytes, 6 tensors)

conv1.weight f4 [32, 3, 3, 3]
-0.17008732 -0.14790475 -0.1720616 -0.08408457 -0.0809885 -0.024073169 -0.114801675 0.13756765
-0.015717655 -0.03512524 -0.100786254 -0.1510945 -0.14459713 0.05142273 -0.03581579 0.19063549
0.10279207 -0.020400897 -0.014760271 -0.17354095 0.10635902 0.0630642 0.045386046 -0.113135956
0.12349184 0.021822006 -0.13449892 0.16213341 0.107303664 -0.17234859 0.11561485 0.098984584
-0.15782051 0.0857711 -0.10287864 -0.08977084 -0.06863691 -0.17737414 -0.11861518 0.16541202
-0.048917666 0.06490876 -0.04358892 -0.17417032 -0.12816462 0.07489978 -0.11061132 -0.16872445
-0.15009478 -0.14370292 0.14095162 0.03527856 -0.02148223 -0.008110151 -0.15422307 0.15098198
-0.04103166 0.0074086785 -0.04792139 0.18233569 -0.12148082 0.1628261 0.120914415 0.00033214688
-0.11244704 -0.1610795 0.09003751 0.17923628 -0.09807978 0.18482862 -0.15996307 0.0520121
-0.00096417964 -0.0032554716 0.16221191 0.055329606 0.094447866 -0.010784939 0.17206831 -0.06667495
0.18418027 0.04218903 -0.006363809 -0.088086955 0.17830475 -0.08580534 0.15958138 0.109192446
0.1414199 0.15612526 0.097351834 -0.07376841 -0.16985232 -0.039949313 -0.12213136 0.12701438
0.1364216 -0.15699211 0.06920694 -0.054544434 -0.01861149 -0.1316909 -0.09561972 0.017365187
0.044202298 -0.07019679 0.07722764 -0.10462867 -0.031356543 -0.071833394 0.15185468 -0.025823861
-0.16221243 -0.09747887 -0.043379918 -0.08932095 -0.15721124 0.0017448813 0.047787532 -0.104223646
-0.12092801 0.16468592 0.15906997 0.039417595 -0.1299854 -0.092797995 -0.055941567 0.10799061
0.09078051 -0.048300296 0.15607272 0.020250767 0.06293596 -0.046972454 -0.10935739 0.051097646
0.16930254 0.073284075 -0.1272005 -0.008779183 0.13816385 -0.16893645 0.07599948 0.18250538
0.07205634 0.08399691 0.07186125 0.14723279 -0.030504242 -0.11053194 -0.08336392 -0.184469
-0.08784233 -0.1206813 -0.14013326 0.01989904 0.0213262 -0.04024352 0.028557152 -0.18043438
-0.07592437 -0.07252711 0.16112562 -0.04079956 -0.0073870122 0.15339507 0.03317663 0.0033268481
-0.0957939 -0.077112384 0.060201153 0.06499161 -0.05892791 -0.013359085 0.073950246 -0.07691362
-0.002096191 0.17855622 -0.16829959 0.1709082 -0.09801522 0.11770062 0.07420911 -0.04343511
-0.062752396 -0.18241149 0.10138954 -0.08364555 0.05150543 0.07022463 -0.1563923 0.15474664
0.090677455 0.12244122 -0.033907413 -0.09302248 -0.07655338 0.058968082 0.107599005 0.1622452
0.073473915 -0.09416751 -0.16497554 -0.09686712 -0.15573491 0.062320724 -0.10011295 0.03108862
0.065510765 0.052075565 0.046669155 0.034338266 0.18198068 0.19238396 0.12503733 -0.14021525
-0.10432106 0.104282185 0.002730608 0.14475892 -0.061405987 0.046791136 -0.15203391 -0.0544229
0.16251434 0.11806308 -0.12374968 -0.056095794 -0.0999831 0.11014153 0.18568777 -0.05827388
0.07191534 -0.16599882 0.06734438 0.097442225 -0.15209964 -0.18832742 -0.108886346 0.09488638
0.018268272 0.15685917 -0.05401264 0.14581577 0.03930311 0.08317326 -0.12895387 0.15820108
-0.061190724 0.04911706 0.18467255 -0.10713671 -0.042363822 0.18289031 0.0067311823 -0.015951559
00000000: 5f2b 2ebe 5874 17be eb30 30be 8834 acbd
00000010: 4cdd a5bd 1835 c5bc 241d ebbd 89de 0c3e
00000020: 50c2 80bc 7cdf 0fbd 0669 cebd 84b8 1abe
00000030: 4511 14be a4a0 523d 94b3 12bd f335 433e
00000040: a684 d23d c81f a7bc 10d5 71bc b8b4 31be
00000050: c2d2 d93d ce27 813d b8e6 393d d3b3 e7bd
00000060: 4ae9 fc3d 10c4 b23c 16ba 09be 4d06 263e
00000070: 06c2 db3d 267c 30be 7ac7 ec3d 6eb8 ca3d
00000080: b39b 21be c2a8 af3d 09b2 d2bd c6d9 b7bd
00000090: 8291 8cbd 91a1 35be 84ec f2bd c561 293e
000000a0: e45d 48bd e2ee 843d 4c8a 32bd b459 32be
000000b0: 963d 03be 0e65 993d 3088 e2bd 1ac6 2cbe
000000c0: 72b2 19be dc26 13be 9f55 103e 4080 103d
000000d0: 80fb afbc 70e0 04bc a7ec 1dbe 059b 1a3e
000000e0: d010 28bd 80c4 f23b 3849 44bd 35b6 3a3e
000000f0: f0ca f8bd e3bb 263e faa1 f73d 0024 ae39
00000100: a24a e6bd 06f2 24be 9665 b83d b789 373e
00000110: 0dde c8bd b743 3d3e 5ccd 23be a40a 553d
00000120: 00c1 7cba c059 55bb e11a 263e 4ca1 623d
00000130: e26d c13d 50b3 30bc ad32 303e e08c 88bd
00000140: c199 3c3e 68ce 2c3d 8087 d0bb ef66 b4bd
00000150: 8595 363e b6ba afbd 4d69 233e 4aa0 df3d
00000160: 61d0 103e 4ddf 1f3e 6660 c73d e413 97bd
00000170: c4ed 2dbe e4a1 23bd 0220 fabd 0f10 023e
00000180: 1bb2 0b3e 8ac2 20be 5ebc 8d3d fc69 5fbd
00000190: 2077 98bc fbd9 06be 46d4 c3bd 7041 8e3c
000001a0: 780d 353d 56c3 8fbd 8629 9e3d 8e47 d6bd
000001b0: b86f 00bd 631d 93bd cb7f 1b3e 908c d3bc
000001c0: 041b 26be 00a3 c7bd 24af 31bd e7ed b6bd
000001d0: fcfb 20be 80b4 e43a dcbc 433d 3573 d5bd
000001e0: 1ba9 f7bd 6da3 283e 3de3 223e 5874 213d
000001f0: e51a 05be e00c bebd fc22 65bd 2e2a dd3d
00000200: 22eb b93d 88d6 45bd 87d1 1f3e f0e4 a53c
00000210: 92e4 803d 3066 40bd c4f6 dfbd c44b 513d
00000220: a55d 2d3e f615 963d d940 02be 90d6 0fbc
00000230: d37a 0d3e adfd 2cbe 9ea5 9b3d b1e2 3a3e
00000240: 4692 933d 9206 ac3d fe2b 933d 31c4 163e
00000250: 08e4 f9bc 925e e2bd b4ba aabd 71e5 3cbe
00000260: aee6 b3bd c227 f7bd 187f 0fbe 5003 a33c
00000270: 48b4 ae3c 64d6 24bd b0f0 e93c cac3 38be
00000280: 3c7e 9bbd 1889 94bd 1dfe 243e 701d 27bd
00000290: c00e f2bb 9913 1d3e 38e4 073d 4007 5a3b
000002a0: 982f c4bd 19ed 9dbd 7c95 763d 521a 853d
000002b0: 645e 71bd 10e0 5abc 3a73 973d e384 9dbd
000002c0: 4060 09bb 71d7 363e ba56 2cbe 8f02 2f3e
000002d0: 34bc c8bd 060d f13d f2fa 973d 04e9 31bd
000002e0: 5484 80bd 14ca 3abe 52a5 cf3d 5c4e abbd
000002f0: 5cf7 523d eed1 8f3d 4e25 20be e775 1e3e
00000300: 1ab5 b93d 76c2 fa3d 80e2 0abd 9282 bebd
00000310: 05c8 9cbd 8488 713d de5c dc3d 9b23 263e
00000320: 7e79 963d e5da c0bd 59ef 28be 4562 c6bd
00000330: f978 1fbe 0444 7f3d 0508 cdbd 90ad fe3c
00000340: 822a 863d 304d 553d 2828 3f3d 48a6 0c3d
00000350: 2559 3a3e 4d00 453e c909 003e 9694 0fbe
00000360: 48a6 d5bd e691 d53d 00f4 323b af3b 143e
00000370: d884 7bbd 10a8 3f3d c7ae 1bbe 8cea 5ebd
00000380: 296a 263e 0ecb f13d 7970 fdbd b4c4 65bd
00000390: f1c3 ccbd e291 e13d ef24 3e3e 98b0 6ebd
000003a0: 5a48 933d 98fb 29be daeb 893d ca8f c73d
000003b0: 02c0 1bbe e7d8 40be ceff debd ca53 c23d
000003c0: 58a7 953c b19f 203e 5c3c 5dbd bb50 153e
000003d0: 4cfc 203d be56 aa3d 7c0c 04be 77ff 213e
000003e0: 20a3 7abd f82e 493d cd1a 3d3e 7e6a dbbd
000003f0: b085 2dbd 9947 3b3e 4091 dc3b d8ac 82bc

conv1.bias f4 [32]
-0.14728981 -0.10676707 -0.04968798 0.059811667 -0.168864 -0.1088785 -0.1383354 -0.15507579
-0.11689913 0.17622603 -0.1287913 0.05054459 0.086195156 -0.069382265 0.017413065 -0.17404479
-0.05277297 0.07865219 -0.018311903 0.08635621 -0.054898873 -0.026848286 -0.16954353 -0.13783725
-0.16309658 0.16911022 0.12285195 -0.010028318 0.008301005 -0.18637392 -0.013572708 0.040533096
00000000: 24d3 16be b2a8 dabd a085 4bbd 14fd 743d
00000010: afea 2cbe b1fb debd cca7 0dbe 30cc 1ebe
00000020: d068 efbd 9974 343e dee1 03be d807 4f3d
00000030: 1687 b03d 4a18 8ebd d8a5 8e3c cc38 32be
00000040: 7828 58bd 6614 a13d d802 96bc 86db b03d
00000050: a4dd 60bd f0f0 dbbc d29c 2dbe 3525 0dbe
00000060: ca02 27be 3b2b 2d3e ce99 fb3d d04d 24bc
00000070: f000 083c ced8 3ebe 1060 5ebc 0806 263d

conv2.weight f4 [64, 32, 3, 3]
-0.03451588 -0.04683815 -0.053925384 0.037713353 0.048589606 -0.052900426 0.053069364 -0.020735871
0.023735125 0.03357512 -0.0014527738 0.01995046 -0.00012420118 -0.009018708 0.044809174 -0.014158446
-0.038702823 0.057421643 -0.009710811 0.046048503 0.03883108 -0.024172377 0.0019733869 0.023117427
0.018533256 0.047738556 0.026215028 -0.019516788 0.01112831 0.030899178 -0.0043281093 0.04692949
0.040574294 -0.040863533 0.013038281 -5.427748e-05 -0.008154627 0.05336604 0.04692735 -0.0034326166
-0.020322867 -0.008733705 0.025002863 -0.048452333 0.023876559 -0.024634026 0.010701824 -0.013898231
0.030101892 0.033895914 0.04502468 -0.04831974 -0.038412083 -0.030854134 -0.0369471 -0.040239193
-0.034815997 -0.03283138 0.012240093 0.03690527 -0.013122778 -0.024994325 -0.056478195 -0.00017145276
0.04290833 0.048382048 0.051157523 0.009860139 -0.053892888 -0.030863905 0.0400771 -0.01264596
0.005699713 -0.0022081211 0.045965586 0.049417626 -0.05265466 0.0004640147 0.04791129 -0.022308543
-0.0035697035 0.055118207 0.0447394 0.022603583 -0.04759708 0.020680133 -0.03016157 -0.021057256
-0.017583456 0.016874146 -0.056145824 -0.026099887 -0.010029804 0.051698234 -0.018057514 -0.006525658
0.01670644 -0.052231353 -0.049273606 -0.04489474 -0.04370725 -0.0230177 -0.036090277 0.024065819
0.030117135 0.049008142 0.057778213 -0.00050709024 -0.058767382 0.052727904 -0.019217249 -0.049195588
-0.056061372 0.04169033 -0.0061958097 -0.057784185 0.0398422 -0.05680057 -1.7631799e-05 0.044070993
0.043386627 -0.023664128 0.03867038 -0.04467731 -0.028013527 0.03170981 0.035760593 -0.04993879
0.047828842 -0.021466464 -0.007062331 -0.05261083 -0.042299617 -0.013371356 -0.027299765 0.010691371
-0.05689012 0.053098705 -0.0057597943 0.013755564 0.04829036 -0.010874413 -0.04583085 -0.04473102
0.047016095 -0.003375329 0.029426586 0.011208456 0.037139934 0.05888715 0.03813641 -0.053022224
0.020951342 0.007830378 0.012443375 -0.0009691939 0.0010581464 -0.051802874 0.007324416 0.025740754
0.023006227 0.047855426 0.047052283 0.0033500828 -0.039998055 -0.027074412 0.00024585798 0.014606159
0.0018526688 -0.030573359 0.055177633 0.049376603 0.04238819 -0.00780797 0.016743552 -0.034828667
-0.024988368 -0.006097786 0.008225534 -0.020415533 0.054230537 0.03354987 -0.022415332 0.024304952
-0.026094567 0.031180102 0.014424276 -0.02308343 -0.019775525 0.024271239 0.026917439 -0.026922192
0.030359995 0.0058979206 -0.011544157 0.031072225 -0.058696553 -0.046687715 -0.018727139 -0.0021660402
0.023381446 0.044392716 0.03996959 -0.046343446 -0.026822913 0.038540233 0.02403127 -0.040087033
0.05423476 -0.029856913 0.03695913 -0.016321506 -0.050838254 0.045422036 0.027992863 -0.051458206
-0.041311085 -0.0502673 -0.05124093 0.03723118 -0.05294653 0.023586433 0.05883934 -0.002087947
0.020053718 0.03480019 -0.001591824 0.007233184 -0.009145368 0.0093138255 -0.04837448 0.047249872
-0.037863288 -0.044068318 0.019582514 -0.01620717 -0.021710474 -0.018984303 0.05412056 -0.04633121
0.004044097 0.014196079 0.031917278 0.009131666 -0.054062985 -0.0006240979 -0.0090145655 -0.029873468
0.0143237375 0.055622216 0.033796553 -0.03376212 -0.038492583 0.0013581812 -0.046958376 -0.0010054559
00000000: 8660 0dbd 5cd9 3fbd dde0 5cbd 5179 1a3d
00000010: e505 473d 1eae 58bd 435f 593d 46de a9bc
00000020: 2a70 c23c 1186 093d 006b beba 266f a33c
00000030: 003c 02b9 34c3 13bc d389 373d d4f8 67bc
00000040: da86 1ebd f532 6b3d 181a 1fbc 5b9d 3c3d
00000050: 570d 1f3d 2605 c6bc f053 013b c260 bd3c
00000060: 0ed3 973c 8189 433d e6c0 d63c ace1 9fbc
00000070: 8453 363c 4620 fd3c d0d2 8dbb 2339 403d
00000080: 3b31 263d 8560 27bd 849e 553c 00a8 63b8
00000090: fc9a 05bc 5996 5a3d e536 403d c0f5 60bb
000000a0: 247c a6bc d017 0fbc ced2 cc3c f475 46bd
000000b0: c698 c33c 4ccd c9bc b456 2f3c 68b5 63bc
000000c0: 3e98 f63c 71d6 0a3d cd6b 383d ebea 45bd
000000d0: fd55 1dbd cfc1 fcbc d855 17bd dad1 24bd
000000e0: 389b 0ebd 327a 06bd ac8a 483c fb29 173d
000000f0: ec00 57bc e6c0 ccbc ae55 67bd 00c8 33b9
00000100: a5c0 2f3d 412c 463d 8d8a 513d 6c8c 213c
00000110: cabe 5cbd 4dd6 fcbc e327 243d 0031 4fbc
00000120: a8c4 ba3b 20b6 10bb 6946 3c3d 236a 4a3d
00000130: 6aac 57bd 0047 f339 a13e 443d 68c0 b6bc
00000140: b0f1 69bb a1c3 613d a940 373d 262b b93c
00000150: 28f5 42bd 6269 a93c 6615 f7bc 4480 acbc
00000160: 2e0b 90bc a63b 8a3c 2af9 65bd 6ecf d5bc
00000170: 0c54 24bc 87c1 533d 5aed 93bc 30d5 d5bb
00000180: f2db 883c 8bf0 55bd 1fd3 49bd 8ce3 37bd
00000190: 6006 33bd 9e8f bcbc 66d3 13bd ae25 c53c
000001a0: 36b8 f63c c3bc 483d d9a8 6c3d 40ee 04ba
000001b0: 11b6 70bd 37f9 573d 7e6d 9dbc 5081 49bd
000001c0: 9ca0 65bd 7bc3 2a3d 3806 cbbb 1caf 6cbd
000001d0: 9331 233d b7a7 68bd 00e8 93b7 c983 343d
000001e0: 2db6 313d 46db c1bc d564 1e3d 8eff 36bd
000001f0: a07c e5bc 25e2 013d b379 123d 9e8c 4cbd
00000200: 2de8 433d 70da afbc 206b e7bb 747e 57bd
00000210: 5d42 2dbd 8813 5bbc c2a3 dfbc dc2a 2f3c
00000220: 9d05 69bd 077e 593d a8bc bcbb 045f 613c
00000230: 1dcc 453d 982a 32bc 21b9 3bbd e037 37bd
00000240: f393 403d a034 5dbb 0610 f13c aca3 373c
00000250: 0b20 183d a733 713d ed34 1c3d d52d 59bd
00000260: 26a2 ab3c fc4a 003c 4cdf 4b3c 8011 7eba
00000270: 80b1 8a3a 402f 54bd a801 f03b 46de d23c
00000280: 8e77 bc3c 0d04 443d e5b9 403d 108d 5b3b
00000290: 00d5 23bd 28cb ddbc 80e6 8039 ac4e 6f3c
000002a0: 40d5 f23a fb74 fabc f101 623d 1f3f 4a3d
000002b0: 3d9f 2d3d 00da ffbb c629 893c 81a8 0ebd
000002c0: 68b4 ccbc f0cf c7bb 64c4 063c 7a3e a7bc
000002d0: d720 5e3d 976b 093d 5ca0 b7bc 2e1b c73c
000002e0: 46c4 d5bc 6a6d ff3c cc53 6c3c 7619 bdbc
000002f0: 4800 a2bc 7ad4 c63c f681 dc3c ee8b dcbc
00000300: 86b5 f83c 5843 c13b b423 3dbc 2e8b fe3c
00000310: cc6b 70bd 9e3b 3fbd a869 99bc 20f4 0dbb
00000320: 728a bf3c 23d5 353d 27b7 233d a0d2 3dbd
00000330: babb dbbc 5ddc 1d3d 3add c43c 4d32 24bd
00000340: 4525 5e3d 7c96 f4bc 7562 173d aeb4 85bc
00000350: c63b 50bd 750c 3a3d 4a51 e53c d7c5 52bd
00000360: d035 29bd 16e5 4dbd 02e2 51bd b97f 183d
00000370: 76de 58bd 5638 c13c 8501 713d f0d5 08bb
00000380: b247 a43c a58a 0e3d c0a4 d0ba 5804 ed3b
00000390: 74d6 15bc 0499 183c 5224 46bd 1589 413d
000003a0: 8916 1bbd fb80 34bd 826b a03c e6c4 84bc
000003b0: 2ada b1bc f884 9bbc 85ad 5d3d cbc5 3dbd
000003c0: 5884 843b ac96 683c b1bb 023d fc9c 153c
000003d0: 2671 5dbd 809a 23ba d4b1 13bc 34b9 f4bc
000003e0: 1cae 6a3c 1fd4 633d 416e 0a3d 264a 0abd
000003f0: 66aa 1dbd 0005 b23a 6d57 40bd 80c9 83ba

conv2.bias f4 [64]
-0.048258312 0.056786057 0.028379831 -0.048261184 -0.01786014 0.05497626 -0.031237502 -0.031065263
0.015285131 0.02966426 0.03031044 -0.05750287 0.021982316 0.030666556 -0.014675349 -0.028515033
0.030227568 -0.05675819 0.0020209327 -0.034632936 -0.040130444 -0.037324484 -0.046032548 0.0397184
-0.035634674 0.020846706 -0.046782933 -0.010761116 -0.018772278 0.024791036 -0.010347221 0.024748962
0.042186793 -0.04933493 -0.015554287 0.021820422 0.0039354153 0.039717313 0.016141225 -0.023167823
0.042911384 0.05708049 0.03210437 -0.05533681 -0.0020670295 0.010871638 -0.005753573 0.021247681
0.033945788 0.032023456 -0.00921841 0.020821165 -0.039525576 -0.03688468 -0.009892672 0.043799516
0.024795774 0.037435856 0.027717378 0.008406822 -0.008400254 0.0587804 0.044733178 -0.02070183
00000000: 82aa 45bd 7f98 683d d27c e83c 85ad 45bd
00000010: 6e4f 92bc c92e 613d cae5 ffbc 947c febc
00000020: 7c6e 7a3c 7602 f33c 9a4d f83c 2188 6bbd
00000030: 4214 b43c 6e38 fb3c e070 70bc 5c98 e9bc
00000040: ce9f f73c 477b 68bd a071 043b 44db 0dbd
00000050: d25f 24bd 8fe1 18bd a08c 3cbd c3af 223d
00000060: aaf5 11bd b6c6 aa3c 769f 3fbd 644f 30bc
00000070: 52c8 99bc 9216 cb3c 6487 29bc 56be ca3c
00000080: 0fcc 2c3d 6c13 4abd 68d7 7ebc bec0 b23c
00000090: a8f4 803b 9fae 223d 9a3a 843c 72ca bdbc
000000a0: d9c3 2f3d 3bcd 693d df7f 033d daa8 62bd
000000b0: 0077 07bb f41e 323c 7888 bcbb 9e0f ae3c
000000c0: bd0a 0b3d 072b 033d d008 17bc 2691 aa3c
000000d0: 92e5 21bd 6414 17bd e014 22bc 1f67 333d
000000e0: 8220 cb3c 5756 193d 8e0f e33c c4bc 093c
000000f0: 38a1 09bc b7c3 703d 233a 373d e296 a9bc

fc.weight f4 [5, 64]
0.03137985 0.08854379 0.10647042 -0.03066203 -0.06192933 0.112314105 0.018413916 0.10823676
-0.010704398 0.037420735 -0.051450327 0.09080863 -0.099286765 0.10546443 -0.025584802 0.034034953
0.054392442 0.0063642412 -0.102575645 0.06692645 -0.10890682 -0.0701198 -0.10066068 0.11624196
-0.024236247 0.07648355 -0.06919132 -0.07981178 0.008777067 -0.12022151 -0.0018264204 -0.062884554
0.0093103945 0.04419461 -0.07885525 0.06697895 0.06621501 -0.08514498 -0.08495602 -0.047963962
0.020450324 -0.051333576 0.043117434 -0.021308064 0.044296086 -0.006803736 0.07453075 -0.021777108
0.11641723 -0.031551808 -0.06605685 0.01729402 0.09993923 0.07932964 -0.022141188 0.10604131
-0.035274595 0.09235041 0.014282942 -0.02248852 -0.09026019 -0.084836274 0.052929968 0.11775708
-0.11177795 0.09447488 -0.08816221 0.08527164 -0.06668039 -0.014448568 -0.056166127 0.09556474
-0.098132 0.12366244 0.099981934 0.008253038 -0.055668533 0.11590777 -0.034432948 -0.08642815
0.055674568 0.018119335 -0.0130958855 0.04545909 -0.11560218 0.09427655 -0.08970234 0.10492182
0.011847407 -0.015546113 0.019240484 0.036117658 0.09858003 -0.099456996 0.07334116 0.07798612
0.015346333 0.003121525 -0.0047351867 0.023370057 0.099271014 -0.08973119 -0.08986908 0.048427686
0.08070423 0.04320517 0.06601721 0.087872356 0.08120358 0.11011812 -0.013091251 0.052384883
0.0010804683 0.08294512 0.09963602 -0.04572226 0.011678338 0.07035968 -0.007940397 -0.046318278
0.101646036 0.086029425 0.0049461126 0.03984858 -0.12332946 -0.11542013 -0.10441479 0.101918116
-0.082598105 -0.11636959 0.05163288 -0.08279133 -0.02460964 -0.06919469 -0.06564063 0.08880882
-0.04982069 -0.02500993 0.008372918 0.04083565 0.036316067 -0.04114972 0.032908753 -0.08320223
-0.06460884 0.002705574 0.10213697 0.12327871 0.09825182 0.075643465 0.094817266 0.023878023
0.004040152 0.10414204 0.09557009 -0.07316412 -0.080354184 0.0168515 -0.0763215 -0.12389599
0.0018284619 -0.0062481314 0.09497018 0.0035926998 -0.001425758 0.013643488 -0.008771241 -0.03571409
0.04986845 0.06518969 0.023874104 0.10496049 0.063429534 -0.042763114 0.019359216 -0.0654449
0.007957414 -0.09923135 0.114650354 0.08802098 0.020574644 -0.012099832 0.08529487 -0.019025475
0.038986668 0.0761258 0.028165251 0.059244126 0.01809749 -0.01917924 -0.05006656 0.10584994
-0.12280582 0.09629065 -0.0102454275 0.10484986 -0.043209717 0.03420958 -0.10832062 -0.055926964
0.10561514 -0.08100337 0.04007612 0.11298598 -0.10999392 0.08084704 0.09122375 0.041180328
0.0029369444 0.10243636 -0.06914802 -0.008263186 0.07222396 -0.053426012 -0.0040704906 0.035289884
0.09168695 0.017369494 0.009990856 -0.048512474 0.004112616 0.009939641 -0.034117013 -0.12005633
0.017095804 -0.050574034 0.078620866 0.05858791 -0.021069035 0.015330911 0.03287171 -0.06655398
-0.08739281 -0.050419003 -0.0988484 -0.11486018 0.054508 -0.09416415 -0.11666694 -0.039204553
0.1061012 0.07427025 0.1138369 -0.0032275468 0.067782074 -0.0037312955 0.1124537 0.08213915
-0.10307191 -0.10148516 0.1064212 0.07827002 0.059691966 0.059741706 -0.016057 0.002491355
00000000: 2888 003d 7256 b53d 2a0d da3d f02e fbbc
00000010: 9ca9 7dbd f004 e63d c8d8 963c 3cab dd3d
00000020: 8061 2fbc 7c46 193d 94bd 52bd e0f9 b93d
00000030: dc56 cbbd bcfd d73d 3897 d1bc 3c68 0b3d
00000040: 9cca 5e3d 208b d03b 2e13 d2bd bc10 893d
00000050: 8a0a dfbd f89a 8fbd 3027 cebd 4410 ee3d
00000060: 188b c6bc 68a3 9c3d 2eb4 8dbd 5c74 a3bd
00000070: b0cd 0f3c b236 f6bd 8064 efba 9ec9 80bd
00000080: a08a 183c 6805 353d dc7e a1bd 422c 893d
00000090: bc9b 873d 7e60 aebd 6cfd adbd dc75 44bd
000000a0: 7087 a73c 2843 52bd e89b 303d 408e aebc
000000b0: d06f 353d e0f1 debb 94a3 983d e865 b2bc
000000c0: 286c ee3d 783c 01bd d048 87bd 30ac 8d3c
000000d0: f0ac cc3d 9477 a23d 7061 b5bc 302c d93d
000000e0: 187c 10bd 3622 bd3d 0003 6a3c d839 b8bc
000000f0: 56da b8bd a4be adbd 18cd 583d a02a f13d
00000100: d6eb e4bd 0c7c c13d 648e b4bd e6a2 ae3d
00000110: ba8f 88bd b0b9 6cbc 740e 66bd 72b7 c33d
00000120: 6ef9 c8bd bc42 fd3d 54c3 cc3d c037 073c
00000130: b004 64bd 0e61 ed3d 9009 0dbd 3e01 b1bd
00000140: 040b 643d 006f 943c 2090 56bc 5033 3a3d
00000150: d6c0 ecbd 1014 c13d dcb5 b7bd 40e1 d63d
00000160: a01b 423c 20b5 7ebc 389e 9d3c 1cf0 133d
00000170: 54e4 c93d 1cb0 cbbd e433 963d 30b7 9f3d
00000180: 306f 7b3c 8092 4c3b a029 9bbb 9072 bf3c
00000190: 9a4e cb3d fcc4 b7bd 480d b8bd 1c5c 463d
000001a0: 4248 a53d e8f7 303d 0834 873d 6cf6 b33d
000001b0: 104e a63d 9c85 e13d b07c 56bc 8891 563d
000001c0: 809e 8d3a 22df a93d f80d cc3d 4447 3bbd
000001d0: 8056 3f3c bc18 903d 7018 02bc 3cb8 3dbd
000001e0: cc2b d03d 3230 b03d 0013 a23b 4438 233d
000001f0: 2894 fcbd 6461 ecbd 6cd7 d5bd 72ba d03d
00000200: 3229 a9bd 2e53 eebd 007d 533d 808e a9bd
00000210: 289a c9bc f2b5 8dbd 986e 86bd 66e1 b53d
00000220: c810 4cbd a0e1 ccbc 902e 093c 4843 273d
00000230: 28c0 143d 9c8c 28bd 54cb 063d ee65 aabd
00000240: a451 84bd 0050 313b 302d d13d 8c79 fc3d
00000250: 4038 c93d f6ea 9a3d 8e2f c23d d89b c33c
00000260: 4063 843b 6c48 d53d 40ba c33d 12d7 95bd
00000270: bc90 a4bd 280c 8a3c 724e 9cbd 2ebd fdbd
00000280: 00a9 ef3a 20bd ccbb ba7f c23d 8073 6b3b
00000290: 80e0 baba f088 5f3c 40b5 0fbc f048 12bd
000002a0: dc42 4c3d 2c82 853d a093 c33c 86f5 d63d
000002b0: 58e7 813d 6028 2fbd 3897 9e3c fa07 86bd
000002c0: d05f 023c ce39 cbbd cecd ea3d 5844 b43d
000002d0: 288c a83c 603e 46bc 14af ae3d 50db 9bbc
000002e0: 7cb0 1f3d d8e7 9b3d d0ba e63c f8a9 723d
000002f0: 3041 943c c81d 9dbc 9812 4dbd dac7 d83d
00000300: 9e81 fbbd 0834 c53d 70dc 27bc 86bb d63d
00000310: acfc 30bd 581f 0c3d 34d7 ddbd ac13 65bd
00000320: c04c d83d 18e5 a5bd dc26 243d 3265 e73d
00000330: 7e44 e1bd 2293 a53d 84d3 ba3d b4ac 283d
00000340: c079 403b 28ca d13d 7a9d 8dbd 5062 07bc
00000350: 28ea 933d 3cd5 5abd c061 85bb 208c 103d
00000360: 5ec6 bb3d 784a 8e3c b0b0 233c 04b5 46bd
00000370: 20c3 863b e0d9 223c 48be 0bbd 18e0 f5bd
00000380: 800c 8c3c b826 4fbd fa03 a13d e0f9 6f3d
00000390: f898 acbc 802e 7b3c 7ca4 063d 744d 88bd
000003a0: 00fb b2bd 2884 4ebd 0871 cabd d03b ebbd
000003b0: c843 5f3d 22d9 c0bd 14ef eebd f494 20bd
000003c0: 964b d93d 001b 983d 5223 e93d 4085 53bb
000003d0: 54d1 8a3d c088 74bb 204e e63d 9238 a83d
000003e0: 5e17 d3bd 74d7 cfbd 5cf3 d93d 084c a03d
000003f0: 907f 743d b8b3 743d f889 83bc 0046 233b

fc.bias f4 [5]
-0.05056171 0.047418848 -0.08368504 0.0018324256 -0.07501966
00000000: cc19 4fbd 443a 423d 1063 abbd 002e f03a
00000010: e8a3 99bd
