app/src/main/assets/models/detector.onnx (onnx, 16605 bytes, 4 tensors)

backbone.0.weight f4 [32, 3, 3, 3]
000000 6c 83 2b be 4c 12 2b bd ee 1b ab 3d 82 ce 17 be
       -0.16749352 -0.041765496 0.083549365 -0.1482487
000010 80 25 93 ba 72 77 c4 3d a4 ce 15 be 34 b7 2a 3d
       -0.0011226386 0.09593095 -0.14629608 0.041678622
000020 a4 d3 3d be bd 39 91 bd d4 bd c3 bd 57 8b 26 3e
       -0.18537766 -0.07091091 -0.09557691 0.16264091
000030 19 82 f5 bd 50 00 a7 3c d8 78 cb 3c 8d 8a 2e be
       -0.11987705 0.020385891 0.024837896 -0.1704504
000040 96 db b3 3d 92 9d f5 bd 01 bf 1f 3e 97 dd 99 bd
       0.08782117 -0.11992945 0.15600206 -0.07512968
000050 4b e1 00 3e 16 73 b1 3d 8a 51 a4 3d fe d8 c7 bd
       0.12585942 0.08664529 0.08023365 -0.09758185
000060 11 cd 2c be ac 8e 39 be 76 b2 d6 bd e1 a5 b6 bd
       -0.16875102 -0.18120831 -0.104832575 -0.08918358
000070 bc 94 14 be 99 f5 29 be cf 31 42 3e 98 b8 50 3d
       -0.14509863 -0.16597594 0.18964313 0.050957292
000080 8e 25 e7 3d a7 28 ef bd 48 b2 38 be 9d 73 3b 3e
       0.1128646 -0.11677676 -0.18036759 0.18305822
000090 aa 18 da 3d 66 44 80 bd b7 77 0e 3e 22 e7 86 3d
       0.106492355 -0.06263046 0.13912855 0.06587054
0000a0 3f b4 23 3e 00 66 fa bc 30 e3 59 bd 96 ce a5 3d
       0.15986727 -0.030566216 -0.05319518 0.08096044
0000b0 54 6c 48 bd 0e 73 e1 3d 10 5c 56 3d 4d f0 1b 3e
       -0.048931435 0.11008273 0.05233389 0.15228386
0000c0 86 69 98 bd f3 73 b6 bd da de c1 3d f7 46 c6 bd
       -0.07442002 -0.08908834 0.09466334 -0.09681504
0000d0 78 cf 97 bd 40 0d af 3c 8b 05 39 3e 56 f5 cc 3d
       -0.074126184 0.021368623 0.1806852 0.100077316
0000e0 9a 80 1b be 7d 92 d8 bd 1f 55 a4 bd 57 1b 27 3e
       -0.15185776 -0.105748154 -0.08024048 0.16319023
0000f0 2e 99 b2 3d 7b 80 d6 bd d0 a4 af 3c 85 a7 a5 bd
       0.08720623 -0.104737245 0.021440893 -0.080885924
000100 b9 a4 b2 bd 56 4f be 3d 41 9e 0a 3e 9d e8 02 3e
       -0.087228246 0.09292476 0.13536932 0.12784047
000110 ba 70 ed 3d f8 99 11 be e8 14 d9 bc e1 01 34 3e
       0.115937665 -0.1421889 -0.026499227 0.17578842
000120 ff b4 3f 3e b7 64 35 3e 7c 07 22 3d d5 d0 16 be
       0.18721388 0.17714201 0.03955792 -0.147281
000130 d2 ec 06 be d2 c7 21 be 2f 02 d2 bd d0 8c 22 3d
       -0.13176277 -0.15798882 -0.10254323 0.03968507
000140 0c 5d 2f bd 25 29 11 be e8 c8 51 3d 87 2b b4 bd
       -0.042813346 -0.14175852 0.05121699 -0.08797365
000150 9e b5 82 3d a4 67 f9 bd a7 30 cd bd 09 fd 35 3e
       0.06382297 -0.12177971 -0.10019045 0.17772307
000160 6c f7 6d bd e9 74 13 be 8f 7b 43 3e d7 56 3a be
       -0.058097288 -0.14400066 0.19090103 -0.1819719
000170 27 b9 2e 3e 36 c6 9b 3d 0a 64 3f be fb e0 12 3e
       0.17062818 0.07606165 -0.18690506 0.14343636
000180 7b ed 20 3e 0b 1a 3c be 5d 32 3b be bb 4a 3c 3e
       0.15715592 -0.1836931 -0.18280931 0.18387882
000190 b3 4d 0b 3e 07 cb 44 be 6e 8e 98 3d 4e de 99 3d
       0.13603859 -0.19218074 0.07449041 0.075131044
0001a0 aa c6 96 3d a4 68 70 3d c1 32 05 3e 06 b1 d7 3d
       0.07362111 0.058693543 0.13007642 0.105318114
0001b0 80 08 07 be b9 1d 0c 3e 0d b5 2e 3e d4 c5 23 3d
       -0.13186836 0.13683213 0.17061253 0.039983585
0001c0 ca f9 82 3d 28 76 85 bd 63 55 3e 3e cc c3 29 3d
       0.063953 -0.06516677 0.1858726 0.041446492
0001d0 1f 77 1a 3e 94 9c 48 bd ba 1c d3 bd 18 64 3d 3d
       0.15084504 -0.04897745 -0.103082135 0.046238035
0001e0 24 f9 9f bd a8 57 e9 bc 00 57 2a 3c 33 d7 3e be
       -0.07811192 -0.02848418 0.010396719 -0.1863678
0001f0 ed 73 16 be 8b a3 ed bd c1 c0 3d be e8 f6 38 bd
       -0.1469266 -0.11603459 -0.18530561 -0.045157343
000200 08 1e eb bc d0 af f6 3c dd 4b 3e 3e 00 a3 c2 3a
       -0.028700843 0.03011313 0.18583627 0.0014849603
000210 40 e1 1f 3b e0 7a 0e bd 36 82 b8 3d 08 5e 00 bd
       0.0024395734 -0.03478515 0.09009211 -0.031339675
000220 66 19 de 3d 30 18 bd 3c 80 f5 e4 3c d0 ce 6a 3c
       0.10844688 0.023082823 0.027949095 0.0143315345
000230 48 b7 a1 bc 41 68 ae bd 48 26 fe 3c c5 37 3c 3e
       -0.019740716 -0.085159786 0.031024113 0.1838065
000240 e6 51 a2 3d d9 16 27 be 8c d3 23 3d 0c 34 2f be
       0.07925777 -0.1631731 0.03999667 -0.17109698
000250 9d d6 16 3e a0 73 01 bc 5c 8e 0b bd b0 3e 0a bc
       0.14730306 -0.007901102 -0.03407131 -0.008437797
000260 18 75 ad bd 66 72 af 3d 32 77 bb bd 10 ab 64 bd
       -0.084695995 0.08566742 -0.09153594 -0.0558272
000270 c4 a5 6d 3d 1f ff 3d 3e a9 5a 0a be 7e 88 ed 3d
       0.058019415 0.18554352 -0.13511147 0.115982994
000280 1a 71 c0 3d de 96 d4 3d 06 7a 90 3d c6 54 bf 3d
       0.093965724 0.10380338 0.07054524 0.09342341
000290 7a ba dd 3d 10 3e 3a bd 4b f6 2b 3e ca a3 ce 3d
       0.10826583 -0.045469344 0.16793172 0.10089834
0002a0 1c ed 02 bd 0c ad 7b 3d 87 c0 0f 3e 41 b6 0d 3e
       -0.031964406 0.061444327 0.14038287 0.13839056
0002b0 cc 7f 3e 3d 28 a3 1a bd c2 76 93 3d 6f 00 10 be
       0.046508595 -0.037753254 0.07200386 -0.14062665
0002c0 50 e1 b2 3c 4c 83 e8 bd b5 9c 29 3e c4 8d 7c 3d
       0.021835953 -0.11353168 0.16563685 0.061658636
0002d0 e7 9f 3d 3e e0 0e 26 bd b8 91 11 3d ab 57 1d 3e
       0.18518029 -0.04054153 0.03553936 0.15365474
0002e0 c2 1a c6 3d 6b 28 1b be cd 64 1e be d5 e4 cb bd
       0.096730724 -0.15152137 -0.1546814 -0.099557556
0002f0 01 dd 1e be d0 37 1b be 56 95 ff 3d 8a a0 b1 3d
       -0.15513994 -0.1515801 0.124796554 0.086731985
000300 27 6b 31 be 64 32 9c bd c0 33 93 bc d9 7b 26 be
       -0.17326032 -0.07626799 -0.017969012 -0.16258182
000310 56 b2 a4 3d 76 d0 db 3d 98 9b c8 3c b1 8c 0c 3e
       0.080418274 0.1073312 0.024488255 0.13725545
000320 f4 a4 32 bd ad fb 26 3e b9 ab 14 be e0 4c d4 bb
       -0.043614343 0.16306944 -0.14518632 -0.006478891
000330 ca 0c bb 3d fc 24 94 bd 55 58 41 3e c0 2a 12 bc
       0.09133299 -0.07233617 0.18881352 -0.008921325
000340 40 d0 02 3c 6e 85 17 be e0 43 cd 3b 82 46 9d bd
       0.007984221 -0.14796993 0.006264195 -0.07679464
000350 9c c9 35 be 37 a7 f1 bd b8 e5 3d bd 0e da f4 bd
       -0.17752689 -0.11799472 -0.046361655 -0.11955653
000360 0a 7d 83 3d 55 7a 18 3e c0 b1 d4 3c f0 59 fc 3c
       0.06420334 0.14890416 0.025963664 0.030804604
000370 b0 52 8c bc f9 b1 27 3e 8a af 9f bd ae 57 e4 bd
       -0.017129272 0.16376485 -0.07797153 -0.11149536
000380 0e ae a7 bd b8 05 0f be 54 b3 2a be 7f 5d fe bd
       -0.08187495 -0.13967025 -0.16669971 -0.12420177
000390 8e 54 b7 3d 93 8a f1 bd 62 67 9a 3d 0f 56 25 be
       0.089516744 -0.11794009 0.0753925 -0.1614611
0003a0 50 92 bf bc b1 75 36 3e 5e 3a f1 3d e5 bb 3b be
       -0.023385197 0.17818333 0.11778711 -0.18333395
0003b0 5b 21 a3 bd c0 4e 07 3b 1f c4 f0 bd 6d 60 19 3e
       -0.079653464 0.0020646304 -0.11756157 0.1497819
0003c0 71 fe 15 3e d6 58 b2 bd c9 4c 92 bd d8 3c cc bc
       0.14647843 -0.0870835 -0.07143552 -0.024931356
0003d0 26 15 9e 3d 7e 34 3b be fc 5a 68 bd 4e d2 a6 3d
       0.077188775 -0.18281743 -0.056727394 0.08145581
0003e0 55 f0 0c 3e a3 0f 1f be b6 71 a7 3d f6 36 a1 3d
       0.13763554 -0.15533309 0.081759855 0.07871811
0003f0 b4 3e 3c bd ee b8 33 be a9 c8 39 3e b0 dc 75 bd
       -0.045958236 -0.17551014 0.18142952 -0.060024917

backbone.0.bias f4 [32]
000000 50 2c af bd e8 dd 13 be b0 d4 3c 3c 1e 6e 99 3d
       -0.08553374 -0.1444012 0.011525318 0.07491706
000010 8e 32 a9 3d c0 06 55 bd ba c8 e4 3d 72 4e 94 bd
       0.08261596 -0.05200839 0.11171098 -0.07241525
000020 6e 7e f5 3d a5 ce 15 3e eb be 43 3e 29 19 39 3e
       0.11987005 0.1462961 0.19115798 0.18076004
000030 85 2f 0b be f5 14 08 3e 99 29 26 3e 07 66 43 3e
       -0.13592346 0.13289244 0.16226806 0.19081889
000040 52 e5 c0 bd 28 db fa bc 91 44 33 3e f0 93 7f bd
       -0.094187394 -0.03062208 0.17506625 -0.062396944
000050 32 a8 d2 3d 70 62 f9 bc c2 02 91 bd c1 d2 db bd
       0.10285987 -0.030442446 -0.07080604 -0.107335575
000060 ac ac 4b 3d d8 ff 4f 3d f8 50 0f 3d 92 90 f0 bd
       0.04972522 0.0507811 0.034989327 -0.117463246
000070 f0 b3 5f 3c 00 e8 df b8 c0 3d 77 3c af 54 a0 bd
       0.01365374 -0.00010676682 0.015090406 -0.07828652

backbone.3.weight f4 [85, 32, 1, 1]
000000 aa 26 75 bd 72 c0 ab 3d 7c 05 88 3d 84 4d 17 bd
       -0.059851326 0.083863154 0.06641671 -0.03693916
000010 4f 15 98 bd 0e 5a a3 3d 82 9d dd bd 04 d1 28 bd
       -0.07425939 0.07976161 -0.10821058 -0.041214958
000020 e0 7a 64 bd b0 46 1d bd 20 20 d2 3b 68 61 8e 3c
       -0.055781245 -0.03839749 0.006412521 0.017380431
000030 5b 12 1d 3e 15 56 2c be 68 63 fc bc 69 83 16 3e
       0.15339033 -0.16829713 -0.03080912 0.14698566
000040 46 49 f9 3d d0 38 43 bc 64 a3 0e 3d 70 3c f2 3c
       0.12172179 -0.011915401 0.03482379 0.029569834
000050 06 50 7e bd 60 2f 1f be 40 bd 00 3b 9a 7d e2 3d
       -0.062088035 -0.15545416 0.0019644052 0.11059113
000060 31 b2 28 be 52 0f 96 bd fe 8b 9b 3d 74 b9 90 3d
       -0.16474225 -0.07327141 0.07595061 0.070666224
000070 e0 b2 be 3c a9 78 dd bd b8 14 71 bd 2a 6d c6 3d
       0.023278654 -0.1081403 -0.05885765 0.0968879
000080 00 41 45 bb fa 0a e4 bd cc 3e 29 bd 50 a2 01 bd
       -0.0030098557 -0.11134906 -0.041319653 -0.031648934
000090 e4 2a 02 3d b7 42 30 be b8 61 a1 bd d6 2a a0 bd
       0.031779185 -0.1721295 -0.078799665 -0.0782067
0000a0 90 6e 5c 3c 94 09 af bd 58 26 90 3d 40 d5 3c bb
       0.0134540945 -0.08546749 0.070385635 -0.002881363
0000b0 18 13 dd 3c 06 01 de bd 50 a7 ac 3c db a1 15 3e
       0.026986644 -0.10840039 0.021075875 0.14612524
0000c0 7c 2f 7a 3d ca 8b 2e be f5 d1 18 3e dc 6c 3d bd
       0.06108044 -0.17045513 0.14923842 -0.046246395
0000d0 4d 39 27 3e a8 53 70 3d af 86 2a 3e 21 80 21 3e
       0.16330452 0.05867353 0.1665294 0.15771534
0000e0 dd 27 12 be 63 a1 18 3e b6 4f d8 3d 80 cc 62 3d
       -0.14273019 0.14905314 0.10562079 0.055370808
0000f0 d4 7b 5b bd 96 9e e0 3d e8 76 99 bd 82 34 10 be
       -0.05358489 0.10967748 -0.07493383 -0.1408253
000100 a2 ab a9 3d 5c e7 4a bd 54 69 4f bd 28 47 e9 bd
       0.082846895 -0.049537048 -0.050637558 -0.11390525
000110 c7 9b 0d be 60 fa a4 bc c8 8d 22 be eb 05 24 3e
       -0.13828956 -0.02013892 -0.15874398 0.16017883
000120 80 c8 bf 3c 44 70 55 3d f0 4f 41 3c b0 a7 54 bc
       0.023411036 0.052109018 0.011798844 -0.012979433
000130 e5 8b 1c be 76 35 8d 3d c5 ab 31 3e 6b a6 26 3e
       -0.1528774 0.068949625 0.17350681 0.16274421
000140 e8 4e 42 3d b4 a1 d9 bd 0f 7a b4 bd 06 bc df 3d
       0.047438532 -0.106265455 -0.08812343 0.109245345
000150 f7 b7 15 be 5f 61 23 3e bd d7 16 3e c0 0d 12 3d
       -0.14620958 0.15955113 0.14730735 0.035657644
000160 7b 6f 28 3e 3a 89 7b bd a1 1a e3 bd 8a 6a 99 3d
       0.16448776 -0.061410166 -0.110890634 0.07491024
000170 80 07 8b ba e0 d9 8e 3c f8 b5 5f 3d 7e 18 e3 3d
       -0.0010607094 0.017437875 0.0546169 0.11088656
000180 20 90 f5 bd 99 5c 27 3e b4 32 12 bd 7a 92 e9 3d
       -0.1199038 0.16343917 -0.035692886 0.11404891
000190 8e 71 e9 3d 50 df ab 3c c0 cb 86 3b 50 c9 ca bc
       0.11398612 0.020980507 0.0041136444 -0.024754196
0001a0 18 02 7a 3d 09 d5 10 3e 85 41 1c 3e b2 6b 0c be
       0.061037153 0.14143766 0.15259369 -0.13712958
0001b0 ce c0 aa 3d 45 0f 21 be 9e 30 a4 3d 4e 36 9d 3d
       0.08337556 -0.15728481 0.080170855 0.076763734
0001c0 72 35 9f bd 7b b2 0f 3e 79 64 2a 3e 19 70 b7 bd
       -0.07773866 0.14032929 0.1663989 -0.08956928
0001d0 be aa 79 bd 1d 29 08 3e b0 8b 9f 3c 50 77 01 3c
       -0.060953848 0.13296933 0.019475788 0.0079019815
0001e0 7d ff 14 3e d0 b5 5c bc 23 6d db bd 30 e9 99 3c
       0.14550586 -0.013471082 -0.107141756 0.01878795
0001f0 83 b5 2e 3e 95 d5 0d 3e 46 90 b7 bd 84 8e 10 bd
       0.17061429 0.13851006 -0.08963065 -0.035292163
000200 3a e2 cd 3d a4 20 6f bd 22 20 b5 3d 2b 3e 04 be
       0.10052915 -0.058380738 0.088440195 -0.1291434
000210 fa ba d6 3d d8 94 0c 3d d9 b8 2a 3e 73 b5 2b 3e
       0.10484882 0.034321636 0.16672076 0.16768436
000220 38 63 86 3d 33 66 07 3e 7b f8 2c be e6 65 ed 3d
       0.06561893 0.1322258 -0.16891663 0.11591701
000230 b0 5b ba bd 8d 10 db bd f8 2c 84 3d 41 12 2f 3e
       -0.09099519 -0.10696516 0.064538896 0.17096807
000240 bc 53 4e 3d 5b 49 8a bd 28 79 94 3d 82 ea bb bd
       0.050372824 -0.06752273 0.07249671 -0.09175588
000250 aa 08 ed 3d b0 62 51 3c 74 0d f7 bd 96 06 84 3d
       0.11573918 0.012779877 -0.12063113 0.06446569
000260 d7 b7 b2 bd 5b e3 18 3e 56 99 b9 3d 86 27 2a be
       -0.08726471 0.14930479 0.0906245 -0.1661664
000270 43 ff e2 bd de 44 b3 3d 1c ac 60 3d 95 35 22 3e
       -0.110838436 0.0875337 0.054851636 0.15840752
000280 1c 79 24 bd 13 01 34 3e cd b9 01 3e e0 5e fa bd
       -0.04015456 0.17578535 0.12668534 -0.12225127
000290 b1 6c 34 3e dc 05 37 bd 84 b2 8e bd 80 bd 3f bd
       0.17619587 -0.044683322 -0.06967643 -0.04681158
0002a0 24 93 5c bd 41 28 1f 3e d4 fb d9 bd 27 1e 0b 3e
       -0.05385126 0.155427 -0.106437355 0.13585721
0002b0 88 e2 85 bc 9b c8 28 3e a0 68 d2 bc c8 16 83 3d
       -0.01634337 0.16482775 -0.025684655 0.064008296
0002c0 af 54 0f 3e be 96 bd 3d 11 e7 21 3e 82 a7 9a 3d
       0.13997148 0.092572674 0.15810801 0.07551481
0002d0 57 f8 26 be e9 b1 18 3e c2 f8 e2 3d 28 5e 6b bd
       -0.16305672 0.14911617 0.11082603 -0.05746284
0002e0 2e e3 aa 3d 08 3e 78 bd 75 54 cc bd 54 d3 2d 3d
       0.08344112 -0.060606033 -0.099770464 0.042437866
0002f0 ae 60 c9 3d c0 80 38 bd c1 bf 2c be 9a 94 19 be
       0.09832893 -0.04504466 -0.16870023 -0.14998093
000300 88 46 8b bc 86 e6 e6 3d b5 ab 2d be 74 04 09 bd
       -0.017001405 0.112744376 -0.16960032 -0.033451512
000310 78 6e 6f bd 83 6b a2 bd 2a 4a 25 be fc 34 28 bd
       -0.05845496 -0.079306625 -0.16141573 -0.041066155
000320 b0 6d ea bd ce 3c a5 bd 20 be 14 bc b6 1c 6a bd
       -0.114467025 -0.08068238 -0.009078532 -0.057156287
000330 a1 c7 17 3e fe a2 a3 3d 50 44 fd bc 6e 5e ef 3d
       0.14822246 0.07990073 -0.030916363 0.11687933
000340 58 c2 42 bd 80 14 ae 3b ae 57 c3 3d e2 42 a0 3d
       -0.047548622 0.0053125024 0.09538208 0.07825257
000350 00 0a 7b 3b 13 67 29 be f0 f6 8d 3d ff dc 13 3e
       0.003830552 -0.16543226 0.06931865 0.14439772
000360 96 f1 1d be a8 23 d9 3c d3 7c ff bd 71 0b b4 bd
       -0.15424189 0.02650626 -0.1247498 -0.08791245
000370 82 04 6c bd e9 33 18 3e 8c 57 07 bd a5 79 31 3e
       -0.057621486 0.14863552 -0.033042476 0.1733156
000380 36 ff d2 bd ec aa 23 3d 46 b4 ca 3d 5f 72 1a 3e
       -0.10302584 0.039957926 0.09897666 0.15082692
000390 0b e3 94 bd a8 9a 42 3d e8 a8 8e bc d2 71 e7 3d
       -0.072698675 0.047510773 -0.017414525 0.113010064
0003a0 90 21 5d bc dc 32 60 bd 1b 8a b7 bd 2e 61 e5 3d
       -0.013496771 -0.054736003 -0.089618884 0.11200176
0003b0 b6 73 de 3d 04 8f 01 be ae 96 89 bd a0 54 9b 3b
       0.10861914 -0.12652212 -0.06718193 0.0047403127
0003c0 27 6e 13 3e 16 10 ee 3d d9 0d 2a 3e 49 d9 18 3e
       0.14397489 0.11624162 0.16606845 0.14926638
0003d0 29 72 09 3e 2b 91 19 3e 88 e4 12 be d2 1b b5 3d
       0.13422455 0.14996783 -0.1434499 0.08843197
0003e0 ca d8 c8 3d 79 da 18 be e8 ca 8d bd 08 15 80 3c
       0.09806974 -0.1492709 -0.06923467 0.015635028
0003f0 b3 d8 2b 3e f8 3e 3c 3d 52 d8 e1 3d a0 7d 75 3c
       0.16781883 0.04595849 0.11027588 0.014983565

backbone.3.bias f4 [85]
000000 44 a5 10 bd de ca b4 3d 70 c3 21 bc 1c c8 25 bd
       -0.03531386 0.08827756 -0.009873256 -0.040474042
000010 00 cb e4 bd 4e 45 c9 3d fc d4 66 3d d8 ce 40 bd
       -0.11171532 0.09827672 0.05635546 -0.04707226
000020 30 af 22 bc b4 df 08 bd 2a d1 c5 bd c0 09 3d bb
       -0.009929463 -0.033416465 -0.096590355 -0.0028844923
000030 a2 15 9e 3d d8 75 14 3d e8 e1 66 bd ce 06 fb 3d
       0.0771897 0.036245197 -0.056367785 0.12257157
000040 4f 9b db bd cc 36 53 3d 2d f0 33 3e 50 ca 98 bc
       -0.10722982 0.05156593 0.17572089 -0.018651158
000050 48 06 7b 3d 13 66 00 3e b4 dc 14 be 8c ad 37 bd
       0.061285287 0.12538938 -0.14537317 -0.04484324
000060 f7 1e 2f 3e 83 e9 28 3e 18 02 4f bd 7e f9 db 3d
       0.17101656 0.16495328 -0.050539106 0.10740946
000070 f0 51 29 be 40 30 91 bd 84 d1 4d 3d a4 75 17 bd
       -0.16535163 -0.07089281 0.050248638 -0.036977425
000080 80 df d3 3c d5 bd 29 be 10 33 74 3d a3 64 24 3e
       0.025863409 -0.16576321 0.05961901 0.16054015
000090 5e a3 c5 bd 40 46 6b bb 62 d2 bb 3d 6a 7c d0 3d
       -0.096503004 -0.0035900027 0.09170987 0.1017998
0000a0 77 7f 12 3e c8 b5 1e be ef ec c0 bd a8 a4 92 3c
       0.14306436 -0.15499032 -0.094201915 0.01790078
0000b0 40 65 eb bb 30 60 58 3d c5 36 0d 3e 1a e4 54 bd
       -0.007183701 0.052826107 0.13790424 -0.051975347
0000c0 b3 59 ad bd d1 75 33 3e 00 c8 7d 3c 1b e3 32 be
       -0.084643744 0.17525412 0.015489578 -0.17469446
0000d0 c0 32 7a bd 50 9d 9a bc cc 6e 7d 3d ea 40 9d bd
       -0.061083555 -0.01887384 0.061873242 -0.07678397
0000e0 68 81 12 be f1 7f 0e 3e 1a 0f 0a be ee 8a d6 3d
       -0.14307177 0.13915993 -0.13482323 0.104757175
0000f0 40 30 c8 bb 34 a1 0b bd 3b 91 09 be 7e e6 70 bd
       -0.0061092675 -0.034089282 -0.13434307 -0.058813564
000100 20 b8 82 3c 20 39 0d bd 1a 0c ec 3d 34 25 8f 3d
       0.015956938 -0.034478307 0.11525746 0.06989518
000110 13 e2 df bd f4 67 1a 3d f8 82 71 3d 02 a5 ed 3d
       -0.10931792 0.037696794 0.058962792 0.11603738
000120 9c 2a 30 bd 42 ed a4 3d c0 53 38 3b 50 ba c6 3c
       -0.043009385 0.08053066 0.002812609 0.024258763
000130 0c 82 b6 bd 37 13 08 3e cd 80 c0 bd 50 8e 0e 3c
       -0.08911523 0.1328858 -0.09399567 0.008700922
000140 30 58 c8 bc 90 60 30 be f4 8d 8b 3d 04 89 76 3d
       -0.024456114 -0.17224336 0.06814185 0.060189262
000150 11 a1 2c 3e
       0.16858317
